model.pth (torch, 987822 bytes, 21 tensors)

embedding.weight f4 [1359, 50]
00000000: f32d 913f f489 babe 24c2 11be 69c9 0d3f
00000010: 0efe 223f 967f c13f adca 14c0 5853 54bd
00000020: b42a 1c3f d53d 5b3e 3e0f 0abf 953b 953e
00000030: 094a c53e bd2b 99bf d2b4 80bf 1bea 25c0
00000040: 61a1 fc3f 1070 e0bf 0167 47bd 75ed d6bf
00000050: 7fd0 d8bf 8cdc dc3f 7477 de3e 5625 f0bf
00000060: d487 3e3f 1606 f4bf 7738 d5bf 4298 2440
00000070: 05c4 dcbf c545 df3f 88dd dbbf f494 913e
00000080: cfa6 6c3f a034 953f 489f 49bf e7e8 acbf
00000090: 7440 c13f f9f0 8bbe 2a76 603d ee47 debf
000000a0: ccb1 173e c484 58bf 00da 193e b0a5 00bf
000000b0: 38c2 c63f 64b6 143f aabf 2c3f 025c bb3e
000000c0: a6c2 fd3e 981d a6bf 23bb 32bf d544 4ebe
000000d0: a0e6 bdbf 0835 edbe 7e40 1bbf 020f d43f
000000e0: e241 22be df28 393f a8b0 37bd 19d3 2bbf
000000f0: b8c9 b43e 53fa 27bf da75 8a3f ef40 513f
00000100: c200 853f ac7a 4abf 04e4 3a3f 4fc7 243f
00000110: f336 babf aa8c 843f c34f 02c0 6cdf a4be
00000120: fce7 debf 0e4a c8bf d38b a13f 8b3b cebf
00000130: 589a b43f 9413 aabe fc52 873e b429 9a3e
00000140: 943c b3bf c328 bd3f cf91 08bf 5108 17be
00000150: 8045 18bf bef5 6cbf c408 0c3f 7839 83bf
00000160: 70a4 b4bf b2f4 69bf 6b2e 2b3f dce8 13bf
00000170: d317 f03e d564 693f cec4 ab3f 7bd7 8abe
00000180: e361 2140 0c18 d13e c061 6540 5304 743e
00000190: fb32 cd3f 150f e2be 5fa9 af3e fe5f 81bf
000001a0: 0ef4 0bbf 035e 13c0 6e83 5b3e 5c66 cb3e
000001b0: 7013 8ebe be28 b4be 4620 6dbd b7bd 03c0
000001c0: c843 6a3e 0365 3d3e 9934 b7bf 3a35 8e3f
000001d0: d5e6 39bf c401 d8bf 22d7 a5bf 30d9 96bf
000001e0: aac4 84bf 2d2f d9bd d87a 80bf f6e7 20bf
000001f0: 02af 37bf 5f50 6cbf 1c6a 9bbf a8f0 5c3f
00000200: 882e c53d 1f81 cb3f 3ca1 06c0 6199 0dbf
00000210: 7ec5 5440 44f6 963f d4e6 aebf bcf8 be3f
00000220: e68f 1540 ea9f 6e3e 091d aebf ea6f e4be
00000230: 853b adbd 9168 39bd a43f e23f 4883 b0be
00000240: c8dd 943e ceb4 e83e ba36 103f b626 843e
00000250: 62e2 4f3f e9e6 5cbf a87d d9be 1b0e 77bf
00000260: ce13 c0bf de4f 0540 72e4 0cbf 90b8 b7bf
00000270: 308f 64bf 851a 883d e7d5 ddbf 97b5 4e40
00000280: 91bb 6dbf b468 a1bf 17e5 d8bd 44ec 003f
00000290: b728 513f c7a5 46bf 3816 c5bf 18a0 843f
000002a0: a93a 593f 7078 0f40 cecf 94bf 379d 4b3f
000002b0: 96a0 b7bf 4ff1 dcbf eb61 7ebf 95bc 35bf
000002c0: b7b6 323e 04b6 64bf 6d16 813f 5bb8 72c0
000002d0: 80f3 42bd 33d2 32c0 d67f de3f 0b37 fc3e
000002e0: d635 de3e 6c42 fe3e 9242 ca3e a2f9 913f
000002f0: a021 fbbe 0235 a53f baf0 0640 dfbc 9e3e
00000300: 0fa1 9a3f 63a1 9abd c210 5bbd c15b 0040
00000310: d974 a23f 5422 73c0 3e66 8d3f 7d35 04c0
00000320: 6b98 b93f 28c1 88bf 0dc1 a93f ccbe bbbf
00000330: 6c81 e63f 3a1e a33f f3cc 24bf 4992 04bf
00000340: b431 9d3f f418 21c0 eee3 afbf 2483 0ec0
00000350: 4039 20bf 7a24 98bf 031f 9f3e 258a ccbe
00000360: 6b81 793f ea66 29bf 8b34 32bf dff3 b5bc
00000370: 77fb ba3f c466 6fbf a1e0 a5bf 7283 34be
00000380: de49 96bd 248d 8b3f 93d6 ca3d 868c df3f
00000390: 5fc8 963f 770d a8bf baf6 4c3d 5cb2 0abf
000003a0: 354a b33e 4138 4e3e 5991 dabf f7e9 f0bf
000003b0: 1ee9 84be a268 37bf cf75 7e3f 15e5 e5be
000003c0: b18e 79be 21d8 1d40 3e59 0f3f ad06 99bf
000003d0: 51b9 4a3e c085 f03c 2993 10c0 1d06 9cbf
000003e0: 8787 cb3e 00ae a9bf cf0a c9bf 47bf 1bc0
000003f0: 522f 5f3f 41bb 953f 5933 3cbf 419d 0f40
1.1342148 -0.36433375 -0.14234215 0.5538545 0.63668907 1.5117061 -2.3248703 -0.051837295
0.6100266 0.21410306 -0.5392951 0.2914702 0.38533047 -1.1966473 -1.0055182 -2.5924137
1.9736749 -1.7534199 -0.048682217 -1.6791216 -1.6938628 1.7254806 0.4345051 -1.8761394
0.7442601 -1.9064357 -1.6657857 2.571793 -1.724732 1.7443167 -1.7176981 0.28433955
0.9244203 1.1656685 -0.7875867 -1.3508576 1.5097795 -0.27332285 0.05480019 -1.7365701
0.14813918 -0.84577584 0.15024567 -0.5025282 1.5528021 0.58090806 0.67479956 0.36593634
0.49562567 -1.2977781 -0.698168 -0.20143445 -1.4836006 -0.46329522 -0.6064528 1.656708
-0.15845445 0.7232799 -0.044846207 -0.67118984 0.3531015 -0.6561634 1.0817215 0.81739706
1.0390856 -0.7909343 0.73004174 0.6436662 -1.4548019 1.0355427 -2.0361183 -0.32201707
-1.7414546 -1.56476 1.2620796 -1.6111921 1.4109602 -0.33218062 0.264305 0.30109942
-1.4002862 1.4778064 -0.53347486 -0.14749266 -0.5948105 -0.9256247 0.54700875 -1.0251913
-1.4112682 -0.91389 0.66867703 -0.5777719 0.46893176 0.9116948 1.3419435 -0.27117524
2.5215995 0.4083866 3.5840912 0.23829775 1.6031183 -0.44152132 0.34308907 -1.010742
-0.5466927 -2.302613 0.21436855 0.39726532 -0.27749205 -0.35187334 -0.057892106 -2.0584543
0.22877419 0.18495564 -1.4312927 1.1109993 -0.72617847 -1.6875539 -1.2956278 -1.178503
-1.0372517 -0.10604701 -1.0037489 -0.62853944 -0.71751416 -0.92310137 -1.2141757 0.8630471
0.09628016 1.589878 -2.103591 -0.5531216 3.324554 1.1793904 -1.3664193 1.4919658
2.3369079 0.2330319 -1.3602611 -0.44616634 -0.08458618 -0.045265738 1.7675672 -0.3447516
0.29075456 0.45450443 0.56333506 0.25810784 0.8120481 -0.8628984 -0.4247868 -0.965059
-1.5006044 2.0829997 -0.5503608 -1.4353199 -0.89280987 0.06645683 -1.7330903 3.2298334
-0.9286433 -1.2610078 -0.105905704 0.5036051 0.8170275 -0.77596706 -1.5397406 1.0361357
0.84855133 2.241726 -1.1625917 0.79536766 -1.4345882 -1.7261142 -0.9936816 -0.7099088
0.17452513 -0.89340234 1.0084969 -3.7925022 -0.0475955 -2.7940795 1.7382762 0.49260744
0.4340045 0.4966005 0.39503914 1.1404307 -0.4904909 1.2906802 2.1084428 0.31003472
1.2080401 -0.07550313 -0.05348278 2.0056002 1.2691909 -3.7989702 1.1046827 -2.0657647
1.4499639 -1.0683947 1.326204 -1.4667602 1.8008246 1.27436 -0.6437523 -0.51785713
1.2280793 -2.517148 -1.3741434 -2.2267542 -0.62587357 -1.1886132 0.31078348 -0.39949146
0.974631 -0.6617266 -0.69611424 -0.022211013 1.4607991 -0.9351618 -1.2959176 -0.17628267
-0.07338308 1.0902448 0.09904208 1.7464759 1.1779898 -1.3129109 0.050039984 -0.54178405
0.35017553 0.20138647 -1.7075607 -1.88214 -0.25959104 -0.7164403 0.9939851 -0.44901338
-0.24370839 2.4663165 0.5599555 -1.1955162 0.19797255 0.029360652 -2.258982 -1.2189366
0.39751837 -1.3256226 -1.5706424 -2.4335496 0.8718158 1.169777 -0.7351585 2.243973

lstm.weight_ih_l0 f4 [256, 50]
00000000: 1fcc 45be 8cd6 4e3b 2775 5fbe 9e34 93bd
00000010: 661c f3bc 0281 163d c6aa 1a3c 9485 af3d
00000020: 85d6 15bb 59bc 563d 6e44 143e b2be 15bc
00000030: f5b5 6fbd 42af 3d3d 5ffb 19bd 4c1c 7b3c
00000040: 6bb9 9f3d 9c3b 583d 1661 2cbe e7f9 cc3d
00000050: 0f37 613d e350 a83d 93ca 04be 3913 19bd
00000060: 02a6 2dbd 4964 213d 0f9d d63d 578e 733d
00000070: fada 253e a6e6 49be f4de 91bd 8f73 cfbc
00000080: fcbc 12be 1497 013e 3aff 283d cb1b 2d3d
00000090: e92b 163e 526d d7bd 1e78 eabd 3313 f83d
000000a0: 0020 81bc cbd5 fcba eaf9 8bbd 4b4c ec3d
000000b0: 3cd0 75be 6241 88bd 5d2e b9bd 4109 ad3d
000000c0: bec5 ce3c 1f6f 9f3d 3d52 3e3e 5bea f3bd
000000d0: b11e 32bc e985 aabd 76b2 7cbd 4bb0 62bd
000000e0: 3588 9a3d 7962 2cbd 023e ef3d 2319 5b3d
000000f0: e9e5 0a3d 21cb 2abe 9712 933d 1079 a6bd
00000100: 0152 acbc 6755 0e3e f908 963d dec9 83bd
00000110: 2ee7 333d f580 debd d743 efbd 1eb1 bc3b
00000120: 2c7b e7bd b164 363d 82ba 68bb 1a94 6d3d
00000130: e8e8 313d f133 9a3d e157 9d3d 9186 69bd
00000140: 067c bfbd 91df e0bc 05e6 d0bd 1a68 b03d
00000150: ea33 b7bd 753f df3c a325 e43c 9b5f 8f3d
00000160: 5f08 65bd 6ed2 bdbd 38bb 68be 39b5 963d
00000170: 24fc a2bd cd13 9dbc 71ab 533d eb82 82bd
00000180: 6b9a a0bd 63df 243e 8aad 193e 0c06 1ebe
00000190: 9cc4 703c 2c57 4b3d 1167 a0bd bace 02bd
000001a0: f530 ef3c 0a4a 68bd 1d9d b83d 7e62 0c3e
000001b0: 7bd5 1abd 9317 aabd d890 6fbd ff39 4fbd
000001c0: 648e 493d a565 11bd 74f6 9b3d 836c 0bbe
000001d0: 2115 273d e8ed 0bbe 9097 bb3c b114 bf3c
000001e0: 06e0 3abe eadb 003e 5823 a53c 2c9a 7a3d
000001f0: dd2f bcbb 27ad ecbd 9def c03d 848a de3d
00000200: 3765 57bd de3d cf3c 9bd6 4f3d d638 f33c
00000210: aaee 8fbd 7e6e 3fbd 67b5 51bd c261 abbd
00000220: 59c3 503d ed0c 7cbc 9f35 b63d 35fd f23d
00000230: 464b 05be 717a 743d 5447 7ebc 121c 19bd
00000240: c211 b4bc c418 3cbe da03 a33d 0307 83bd
00000250: 3334 2b3c 215c bdbd 130a 163b d0b0 e93d
00000260: ff20 833d 55c1 293c e791 14bd cdaa 2abd
00000270: f1d0 533d b5a2 b73d 85eb eebd fda2 15be
00000280: 346b d93c f3c5 1cbe 6090 09bd 4029 6dbd
00000290: 2458 8f3b c267 67bd b321 babc 2261 68be
000002a0: ba50 c6bd 894c b5bd d769 8dbd 79bc 71bd
000002b0: 2d27 72bd 275b febc 1ab2 b4bd 90f1 b3bd
000002c0: af6d 9e3d 8265 013e 7bd9 dd3d a498 9e3c
000002d0: 3be8 8d3d 7194 86bc 929b 84bd 43da 823d
000002e0: dd6a 44be 1b58 a73d 3984 fa3d f832 ce3d
000002f0: e474 f83d b8ca 65bd b4bb e83d 2161 133e
00000300: 9f6d 4dbd b849 88bd 4828 6f3d adef 243e
00000310: 249c 66bb 3b78 10be 520b ff3d f52b 4abc
00000320: 9562 21bd 3f53 01bd 3c35 433d a437 d4bd
00000330: 5834 7b3d 4dba 3e3e 0191 74bd 3b05 efbc
00000340: b2f8 523c b7ad 5b3e 4c3d 3b3e f50b c3bd
00000350: f3c2 893c a35d 23bd 14cb 6e3d 0ad2 343e
00000360: a619 e53d daa9 e9bd cc5f afbd 9dec 37be
00000370: 2200 123c 9aaa c73d a5c6 ecbd 28ae 40bd
00000380: ff91 4e3d fa6e e1bc 4d1f e13d 22f7 803d
00000390: 3bbd 9a3d ae5a c53d 3efe 18bd b483 7abc
000003a0: 9879 04bd c572 90bd 6ca6 983d e44f 8b3d
000003b0: 45c7 2d3e d8c8 29bd 168b dd3d 3f50 643d
000003c0: 9202 2f3c 39d0 3dbd 20e7 0e3c 3f70 81bd
000003d0: c3d5 21be f8ca aa3d 003d 533e 23b3 533d
000003e0: 72a0 b1bd d746 0cbd 6006 783c edb6 bfbd
000003f0: e33f 473e d47c 34bc d907 943d d667 0f3e
-0.19316147 0.0031560985 -0.21822034 -0.0718777 -0.029676627 0.036744125 0.00944013 0.085704
-0.002286346 0.052425716 0.14479229 -0.009139704 -0.058523137 0.046309717 -0.03759324 0.015326571
0.077990375 0.052791223 -0.1683391 0.100086026 0.05498415 0.08218553 -0.12967901 -0.037371848
-0.042394646 0.03940228 0.10479175 0.059461918 0.16196814 -0.19716892 -0.07122603 -0.025323657
-0.14329904 0.12655288 0.041259028 0.042262834 0.14665188 -0.10518898 -0.11448692 0.12113037
-0.01576233 -0.001928979 -0.06834777 0.11537989 -0.24005216 -0.06653096 -0.09042046 0.08449031
0.025240775 0.077848665 0.18586059 -0.11909934 -0.010871575 -0.083263226 -0.06169363 -0.055343907
0.07545511 -0.0420861 0.11681749 0.05349077 0.033910666 -0.1667905 0.0718128 -0.081285596
-0.021035196 0.13899766 0.0732593 -0.064349875 0.043921642 -0.1086444 -0.11682861 0.0057584187
-0.1130279 0.04452962 -0.0035511558 0.05800257 0.043435007 0.07529438 0.07682777 -0.0570131
-0.093498275 -0.027450355 -0.10200123 0.08613606 -0.08945449 0.027251938 0.027849978 0.07000657
-0.055916186 -0.09268652 -0.22727668 0.07358784 -0.07958248 -0.01917448 0.05167717 -0.06372627
-0.07841953 0.1610084 0.15007606 -0.15431994 0.014695313 0.04964368 -0.07832158 -0.03193543
0.02919815 -0.056711234 0.09014342 0.13709447 -0.037801247 -0.08305278 -0.058487743 -0.05059242
0.04920806 -0.035497326 0.076153666 -0.13615613 0.040791634 -0.13664973 0.02289942 0.023325296
-0.1824952 0.1258389 0.020158455 0.061182186 -0.0057430104 -0.11556464 0.094207026 0.108662635
-0.05258676 0.025298055 0.050741773 0.029690187 -0.070279434 -0.046736233 -0.05119839 -0.08368255
0.050967548 -0.015383941 0.08896946 0.11864702 -0.13016996 0.05968708 -0.015519936 -0.037380286
-0.021981124 -0.18368822 0.07959719 -0.06397822 0.010449457 -0.09246088 0.0022894188 0.114106774
0.06402778 0.010361035 -0.036271956 -0.041666795 0.051712934 0.08966581 -0.116660155 -0.14612956
0.026540376 -0.15309887 -0.033584952 -0.057900667 0.004374521 -0.056495436 -0.022721147 -0.22693303
-0.09683366 -0.088524885 -0.06904953 -0.059017632 -0.059119392 -0.031049324 -0.08823033 -0.08786309
0.07735764 0.12636378 0.10832497 0.019359894 0.0692906 -0.016428204 -0.06474985 0.06389286
-0.1918139 0.08171102 0.12232251 0.10068315 0.1213167 -0.05610153 0.113639265 0.1439252
-0.05015337 -0.06654686 0.058388025 0.16107054 -0.0035188282 -0.14108364 0.12453331 -0.012339582
-0.039400656 -0.03157353 0.04765819 -0.10362175 0.061329216 0.18625756 -0.0597086 -0.029177299
0.012876676 0.21452986 0.18285102 -0.09523765 0.016816592 -0.03988422 0.05829914 0.17658249
0.11186533 -0.1140935 -0.08563194 -0.17961355 0.0089111645 0.097493365 -0.11561326 -0.04704109
0.0504322 -0.027518738 0.10992298 0.06297137 0.07555624 0.096364364 -0.03735184 -0.01529019
-0.032342523 -0.070531406 0.074536175 0.06802347 0.16970547 -0.041451305 0.10817544 0.05574059
0.010681765 -0.046341155 0.008722097 -0.06320237 -0.158042 0.083394945 0.20628738 0.05168451
-0.08673181 -0.034247246 0.015138239 -0.09361062 0.19457965 -0.0110160895 0.07228059 0.14004454

lstm.weight_hh_l0 f4 [256, 64]
00000000: d8e9 1b3e 85b1 683d 5369 153d 96b4 eb3d
00000010: 9d56 b13b b78a c939 0a63 0d3e d142 273d
00000020: 2c14 8a3d e52d 19be 43f0 203e af39 663d
00000030: cb85 b33d 37ee 003e 95f3 fc3c b451 54be
00000040: 829f c23d a0a3 233c 26ad eabd 14c3 c83d
00000050: d50a 7f3d e92c 5f3d 5c57 0c3d 4dd3 6fbc
00000060: 7875 51bd e6cb b7bd ef3c 223e caf3 e3bd
00000070: 1ffb 75bc 09a6 3f3d c25a 4ebd bc91 91bd
00000080: d05d 87bd 2c62 133b 46ac 333c 48e8 93bd
00000090: f138 743c a187 13bd 7936 e13d 4da1 8fbc
000000a0: 1f6d b6bc c839 58bd 89b4 0e3e c20b 003e
000000b0: bd2f abbd 36c7 f3bd 2fa8 0cbd e045 73bd
000000c0: 8c70 843d de36 cc3d cc6c b53d 5926 88bd
000000d0: f168 063d 5c67 49bd 8443 0a3e 241f 86bc
000000e0: 740c 84bd 98bc 4d3d b7d9 b8bd 5eab 8a3d
000000f0: 5e76 d4bd 1bbe 90bd 6040 90bd 0c01 f43d
00000100: c43c 3dbd 63ef b13c a557 1d3e e2ed 9f3d
00000110: e3f4 65bd c031 debc 0f9b 0f3c e273 16bd
00000120: 2abf 53bd a824 c2bd 6887 fe3c 17e9 193d
00000130: cb6f ecbc bcfd 02bd 3943 e03d bdea b13d
00000140: 5791 69bc 9048 17bc 215c 05be 2441 eb3d
00000150: d292 bf3d 1396 3dbd c1b8 a3bd 4ccd 0cbd
00000160: 9953 07be d14e 01bc e946 793c fe41 e0bd
00000170: 5630 9abd d4eb f2bd 1078 b8bc e27e 1dbd
00000180: 6d0b d93d 3f32 673c 3dbf 4e3e 42a0 e73a
00000190: 57b3 e8bd 4479 93bd f5a3 5fbd 32ff 99bd
000001a0: bdd9 183d 12d7 943d b1a3 f4bc 51ff f03b
000001b0: 8f63 d9bd 76b5 6fbc 6a23 2c3e 21f2 183c
000001c0: 5461 8dbd 7b7f e53c 1bfb b4bd 5080 913c
000001d0: a714 103e a567 913d c4d4 cf3b dfc5 a5bd
000001e0: 4412 123e 339c f5bd 781e 0d3e 01b2 7e3c
000001f0: 7b51 ddbd 7450 c33d 1542 083c 3cf9 153e
00000200: 2c4a 233e fc27 05be 81bc 3e3c e447 97bd
00000210: 1883 6ebd f106 973d 401f fbbd b9c8 d13d
00000220: fc92 fd3c 14a2 b8bd e140 da3c c416 b9bd
00000230: 417a 65bc 345f 8d3d b890 003d 5633 a0bd
00000240: b51e 92bd a224 a93d 5f76 35be f004 45bd
00000250: 7795 85bc a98d 67bd 70db 843d 4205 e1bc
00000260: 6114 ef3d 9dc9 95bd fc98 793c 1a5a 993d
00000270: af57 37bc 0b33 28be 4ed9 203d 381d 603d
00000280: 9e62 923d 283e f23d 9a12 d13c 928c a8bd
00000290: 1cb2 a63c 56ce a0bb 0c7e 793d 97a0 003e
000002a0: f843 0bbe 0e4e 163d 1398 72bd 03c2 18be
000002b0: 1182 d43c e28d 39bd 6db8 cdbc 18f3 cabc
000002c0: a2d6 07be a127 be3d db0c 39bd 3f4b 043d
000002d0: 3fd1 a43d 5bdb 08be d314 dcbd 91da e9bc
000002e0: 8220 c43d 2567 28be 4bda b83d 9b61 823d
000002f0: e155 1dbd 4e49 243d 51c1 01bc ac68 6abd
00000300: 5dcd 0f3d 6420 95bd 8dd6 26be 7c5f 02bd
00000310: 5b13 00be 14bb 10be 1c1d 173e 881b 503d
00000320: 258e a6bc eb57 01be be22 a3bd b64d 23be
00000330: 37ea 183e cefd 093e 2242 783d e30e ccbd
00000340: f7be dd3d 00c4 96bd b692 c3bd df0e acbd
00000350: 4d96 c73d 510d 8dbc a83e c1bd 9185 9a3b
00000360: e36b 8b3c 2e5a b6bd 3f76 d13d b04d 13bd
00000370: bcb2 823d b8c6 84bd 17e5 f0bc c2af 043e
00000380: 2107 debc 7e79 de3c 456a 82bc 2917 46be
00000390: f936 ea3d 3388 f23d 7f88 21bc 7ffc 19bc
000003a0: 3a1f 6239 ad18 2f3b 2d67 183e 3ac4 eabd
000003b0: 87b1 ae3d ba1b c3bd 8646 bb3d 5bb2 3cbd
000003c0: 36ed 0fbe ed8a 093e 1e98 0abd 534d 91bd
000003d0: 2189 30bd e032 0a3e 95f0 dabd b527 0a3d
000003e0: 62f2 11be d4ba c4bd da3a b13d cb6a 3bbd
000003f0: abb6 f7bd 2de8 c13d ad60 8bbb 4eac 1c3d
0.15225923 0.05680992 0.036477398 0.115090534 0.0054119364 0.00038441058 0.13807312 0.040835205
0.06742129 -0.14958914 0.15716653 0.056207355 0.08765753 0.12590872 0.030877868 -0.20734292
0.0950308 0.009987742 -0.11458807 0.09802833 0.06226619 0.05448619 0.034263 -0.01463778
-0.051137418 -0.089744374 0.15843557 -0.111304834 -0.015013485 0.046789203 -0.050379522 -0.07107875
-0.0660969 0.0022488935 0.010966366 -0.072220385 0.014906154 -0.036018018 0.10996718 -0.017532969
-0.02226883 -0.05278948 0.13936056 0.12504485 -0.08358715 -0.11903231 -0.03434008 -0.05939281
0.06466779 0.099714026 0.08858642 -0.06647939 0.032814924 -0.049170837 0.13502318 -0.01637227
-0.06447688 0.050228685 -0.09025901 0.06770967 -0.10374139 -0.0706751 -0.070435286 0.11914262
-0.04620053 0.021720594 0.15365465 0.078090444 -0.056141745 -0.027123332 0.008764996 -0.03673161
-0.05169598 -0.09479648 0.031070426 0.037575807 -0.0288619 -0.03198026 0.10950322 0.08687351
-0.014255843 -0.009233609 -0.13023426 0.11487034 0.093541756 -0.0462857 -0.079942234 -0.034375474
-0.13215484 -0.007892326 0.01521466 -0.10950087 -0.075287506 -0.11861387 -0.022518188 -0.038451083
0.105978824 0.014111101 0.20190139 0.0017671662 -0.11362331 -0.07200864 -0.05459972 -0.07519378
0.037317026 0.07267584 -0.02986321 0.007354655 -0.106146924 -0.014630666 0.16810384 0.009335072
-0.069033295 0.028014889 -0.08836957 0.01776138 0.14070378 0.07099847 0.0063425023 -0.080943815
0.1426478 -0.11992683 0.13781154 0.015545369 -0.10806557 0.095368296 0.008316536 0.14645857
0.15946263 -0.13003534 0.0116416225 -0.07386759 -0.05823049 0.07374371 -0.1226182 0.10243363
0.030953877 -0.09015289 0.026642265 -0.09037545 -0.014006198 0.06902924 0.031388015 -0.078222916
-0.07134763 0.0825894 -0.17720936 -0.048100412 -0.016306622 -0.056531582 0.06487167 -0.027468327
0.11673809 -0.07313845 0.015234228 0.07487889 -0.011190339 -0.16425721 0.039269738 0.054715365
0.07147716 0.118282616 0.025521565 -0.08229937 0.020348601 -0.0049074097 0.060911223 0.1256126
-0.13600147 0.036695533 -0.05922706 -0.1491776 0.025940927 -0.045301326 -0.025112355 -0.02477412
-0.1326547 0.09284902 -0.045178276 0.032298323 0.08047723 -0.13364927 -0.107461594 -0.028546603
0.09576513 -0.16445597 0.09026011 0.06366273 -0.03841198 0.04010897 -0.007919625 -0.05722873
0.03510796 -0.07281569 -0.16292782 -0.031829342 -0.12507384 -0.14133865 0.14757198 0.050807506
-0.020331452 -0.12631194 -0.07965611 -0.15947613 0.14933096 0.13475725 0.060609944 -0.09963777
0.10827439 -0.07361603 -0.09549467 -0.08401274 0.097454645 -0.017218264 -0.09435779 0.0047156294
0.017019218 -0.08903919 0.10227632 -0.03596276 0.06381747 -0.06483215 -0.029406114 0.12957671
-0.027103009 0.027157541 -0.015919814 -0.19344772 0.114362665 0.11842384 -0.009859203 -0.009398579
0.00021564672 0.0026717589 0.14883108 -0.114632085 0.085299544 -0.09526773 0.09144311 -0.04606853
-0.14055333 0.13431902 -0.033836477 -0.070948265 -0.043099526 0.1349597 -0.10690419 0.033729274
-0.14252618 -0.09605947 0.08653803 -0.045756143 -0.12095388 0.09468112 -0.004253468 0.03825026

lstm.bias_ih_l0 f4 [256]
00000000: 7804 653d ef09 8abd 9555 14bd a0c1 edbc
00000010: 7d33 873d a201 be3c 9abc fb3d 16dd 76bc
00000020: 1e0b 1f3e 028b 983c 6513 e63d d947 2c3e
00000030: 6b6a 7f3d 39bd a8bc 99f2 fa3d 17de 973d
00000040: d730 463d f0ef 09bc 33f6 833d e728 263e
00000050: 93e6 c73d 0621 5b3d 2a7d 033e bb6c e33d
00000060: dac0 da3d 74c1 a3bd c5d6 3a3e 40cb 1a3e
00000070: 93fd f83d 494e 9dbb d60a e33b bbe4 98bd
00000080: bb59 2d3d a6d2 afbb 0c6d 2c3e 13c3 a23d
00000090: 27d3 4fbd 40ec 4c3d 65ea 383e 69aa ec3d
000000a0: 7ba3 4a3e 5cad 5fbd b538 373e 3912 aa3b
000000b0: 59ff 1a3d fc3c acbd f9e8 303e fbba ae3d
000000c0: 859a 07bd d811 213e ca15 da3c 4d50 29bd
000000d0: de3c 3cbd 039b 7f3d e173 aebc a3c2 3dbd
000000e0: b397 593d 3bc7 0a3e 53c6 c3bc df60 1c3e
000000f0: 9ded 1f3d fd01 273e a934 af3d cab9 a53d
00000100: 375f 00bc 5faa a43d 9d27 c93d cf96 883d
00000110: c5e5 603d 5ec4 b6bd 1ba9 193e 9f36 803e
00000120: 82dc 82bc 26c0 883d a5c3 2cbd 1d03 693d
00000130: 2b72 e73c 53ad b13d 0309 5bbc 1032 acbc
00000140: 7092 713e aa49 473d cfc3 0aba ca73 323e
00000150: e622 b13d 323b 863c d714 603e bd6b 823d
00000160: 19e4 293e a592 8c3d 940d 6e3e ad4c ef3d
00000170: 6e22 2abd 7486 ad3d fe97 5dbd 28ae 0e3d
00000180: 0c96 2c3d b44f 033d 362f 513e bd40 ff3d
00000190: 91ec 233e 1782 e13d 078a b63d fbec 143e
000001a0: aa2f 063e b45e 92bd f788 b13d 90b0 77bd
000001b0: e06d 273e ae01 1b3e 1da4 babc 5fd0 b13d
000001c0: 9026 75bc 2473 593e 24ed adbb 27b0 143e
000001d0: 39a0 31bd 8d85 623e 6fee 863b 1107 72bd
000001e0: 021e 3e3e bde9 04bd ad30 2c3e 1d64 013e
000001f0: 24fc 6d3d fd28 0fbd f6ac b63d 62d5 973d
00000200: 94fe 763d e3d2 a9bd 9681 d7bd e448 50bc
00000210: 31e2 543d 3d5f e4bd d334 c2bc ef59 eebd
00000220: b528 2bbc 8e4e bebc 3e1d d7bd f35b 09bc
00000230: 4358 50bd bed5 bf3d 530b 0abe 05ff 79bc
00000240: 6bd1 a33b 6ac0 dc3d 4aa1 60bd acd4 bdbd
00000250: 8634 8dbc a614 0bbe 75e5 f73d af25 313d
00000260: 4a5e e8bd c640 df3d 5cde 0ebc 0b4c 5e3d
00000270: 7022 503d c6a3 98bc 115a 013e 6788 c83c
00000280: bab8 d13b 9cb7 963d 6388 06be d5a4 81bd
00000290: b62a e4bc 44e1 ebbd 3319 cbbc 88e4 4e3d
000002a0: 48e6 ebbd 0b94 073e fdaf f43d efd9 813d
000002b0: a43f 56bd c5a7 183d d25b aabd 62af d0bb
000002c0: 48a9 6cbd b49a 41bd 93d7 573b 29b2 1cbe
000002d0: 7b0f 03bd 52d4 073d c0a5 cc3d 8c97 1b3e
000002e0: 3565 03be df07 e9bc 3fe7 26bd 5e9b 90bd
000002f0: de23 e6bd 8ec9 84bd 1568 0b3d 7017 cdbd
00000300: a045 2b3d f54b dc3d a18e 9b3d f3d2 093e
00000310: 952d b33d 7345 3fbd de03 c7bc c23e 073e
00000320: 245d b63c 47b8 f93d 0bcc bebd 4cfe 663c
00000330: e4cf 203e dcbe fd3d 3175 f23d 4749 823d
00000340: 8566 f13c 54d5 393d abf9 4dbd debd ba3c
00000350: 4257 9c3d 06ad 82bd de9f 023d d211 113d
00000360: 95ab 3a3e f865 2d3d 240a 303e a506 33bc
00000370: 66fc aa3d cc01 f03d c113 613e 3151 a43d
00000380: fbaf 68bc 16cf 153e f084 4b3e 6a5c 823d
00000390: f5a6 e83d 935b be3d 6bb8 473e 38cd 983b
000003a0: 41a8 643e adca 993d 58d9 493e 6557 3c3e
000003b0: 9026 4b3e 078d 2e3e 12ca d13d 8ec4 553e
000003c0: d45c 8c3d ab40 c33d 6ab8 f63d 99d8 063e
000003d0: 5b28 673d 9e17 a13d 4c73 d03d 940e b4bc
000003e0: 599d f7bb 9b90 de3c bcc7 fdba 459b 663c
000003f0: c4e6 173e 0c2b 94bd 3824 623d c9bf fa3d
0.055912465 -0.06740176 -0.03621443 -0.029022992 0.066016175 0.023194138 0.12291832 -0.015067359
0.15531585 0.018620972 0.11234168 0.16824283 0.062357347 -0.02059804 0.12253303 0.07415407
0.04838642 -0.008419022 0.06443443 0.1622654 0.097607754 0.05349829 0.12840715 0.11104723
0.10681315 -0.07995883 0.1824599 0.15116596 0.121577404 -0.004800592 0.006928782 -0.07465502
0.0423219 -0.0053656874 0.16838473 0.07947364 -0.05073848 0.050029993 0.18058164 0.11555941
0.19788925 -0.054608688 0.17892726 0.0051901606 0.037841175 -0.08410069 0.17276372 0.085317574
-0.033106346 0.15729463 0.026621718 -0.041336346 -0.045956485 0.06240369 -0.02129549 -0.0463282
0.053123187 0.13552563 -0.02389828 0.15271328 0.039044965 0.16309352 0.08554966 0.08092077
-0.007835201 0.08040308 0.09822009 0.066693895 0.054906625 -0.08924173 0.15005915 0.25041673
-0.015974287 0.066772744 -0.04217877 0.056887735 0.028252682 0.08675637 -0.013368848 -0.021019965
0.23591018 0.048654236 -0.000529346 0.17426983 0.086492345 0.016385648 0.2188295 0.06368206
0.16590919 0.06863908 0.23247367 0.116845466 -0.04153674 0.084729105 -0.05410003 0.034834057
0.042135283 0.032058433 0.20428166 0.1246352 0.16008212 0.11011141 0.089130454 0.14543526
0.1310412 -0.071469694 0.08668702 -0.060471117 0.16350508 0.1513736 -0.022783333 0.08682322
-0.014962807 0.21235329 -0.0053078104 0.14520322 -0.04336569 0.22121258 0.004117779 -0.05908877
0.18566135 -0.032449473 0.16815443 0.12635846 0.05810179 -0.0349512 0.089197084 0.074137464
0.06030138 -0.082921766 -0.105227634 -0.012712691 0.051973525 -0.11150978 -0.02370683 -0.11638247
-0.010446717 -0.023230817 -0.105036244 -0.008383739 -0.050865423 0.0936694 -0.13480882 -0.015258555
0.00499933 0.107788876 -0.054841317 -0.092690796 -0.01723696 -0.13582096 0.12104312 0.04324883
-0.11346109 0.109010264 -0.008720007 0.05427174 0.050814092 -0.01863278 0.12632014 0.024479104
0.006400195 0.073592395 -0.13137965 -0.06330267 -0.027852397 -0.115175754 -0.02479229 0.050510913
-0.11518532 0.13240068 0.119476296 0.06340396 -0.052306786 0.037269372 -0.083182946 -0.0063685635
-0.057778627 -0.047266677 0.0032934889 -0.15302338 -0.031997185 0.03316147 0.09992552 0.1519453
-0.12831576 -0.028446136 -0.040747877 -0.07060884 -0.1123731 -0.06483756 0.034034807 -0.10014236
0.041814446 0.10756675 0.07595564 0.13459377 0.087489285 -0.04669709 -0.024293836 0.13207534
0.02226121 0.12193351 -0.09316262 0.014098715 0.15704304 0.12389919 0.11838759 0.06361633
0.02946783 0.04536946 -0.05028693 0.022795614 0.076338306 -0.06380658 0.031890742 0.035417385
0.18229516 0.042333573 0.17191368 -0.010926877 0.083489224 0.11719093 0.21980192 0.080232985
-0.014202113 0.14629778 0.1987493 0.06365283 0.113599695 0.0929481 0.19503944 0.004663136
0.22329809 0.075093605 0.19711816 0.18392713 0.19838929 0.17045985 0.1024362 0.20875761
0.06853643 0.09533819 0.12046893 0.13168563 0.05643497 0.07865833 0.10178241 -0.021979608
-0.007556599 0.027168563 -0.0019361894 0.014075105 0.14834124 -0.07234773 0.055210322 0.12243611

lstm.bias_hh_l0 f4 [256]
00000000: 84be aebd f39c 5d3d e3e6 5cbd dcd3 133e
00000010: d1e6 d03c 9d38 083e 26d6 813d 3306 173e
00000020: 51c7 133e b730 913d 227b 633d 9062 91bb
00000030: d8e6 873c 801e 053e c860 4cba 445c 0a3e
00000040: 5789 c3bc 9109 423e 4ded 9f3d f5fe 77bd
00000050: 25c9 383d f822 1cbd 6e18 fb3c 96bd 183d
00000060: 9dfd 663e ada4 693d a4fe ae3d b386 4c3d
00000070: 2f8f d53d 8b15 55bc 555a 17bc f8d8 963c
00000080: 22d0 153d d7ee 2b3e c931 55bd 9536 383e
00000090: 453a c13d 298b a9ba 090c e53d 3835 1e3e
000000a0: 778a 703d 16d1 8e3d c1bf 5a3d 809a b23d
000000b0: 3c7c 70bc 9a34 083e dfb7 523d 4a8d 6bbc
000000c0: 7b94 703d 7ecd 55bd 2cac c6bc ff63 4abd
000000d0: 3ab3 44bd 4d47 3d3e 4f09 e53d d1e5 cc3d
000000e0: 04b6 8b3c 57f5 bdbc a465 053d 3da4 133b
000000f0: 672b 163e 403d 35bd bfff ed3d 4727 003e
00000100: 731a 34bd f83e 8bbc d705 0c3e 701a ac3d
00000110: 9534 f6bc 0a10 96bd b4d3 d23d e68e f03d
00000120: 73e1 433e c2db 0a3e 7051 ca3d 2cdc 003e
00000130: 513a 9fbd c36a d53c caea 963c 943a 023e
00000140: 378b 6c3e 60ba a03d 8a8e 9b3d 02ec 203e
00000150: af7d 8f3d 1310 013d 47f5 533e 576d 3e3e
00000160: ce12 1f3e db87 2e3e e1f5 913d 03e3 683b
00000170: 9c27 a6bb b95f b7bb c2f6 573d 6a7d 893c
00000180: 707f 8c3c caeb 2f3e cc0f cf3d 6569 5f3e
00000190: 4c73 503d 8dad 1b3d 15d3 b63d 3f45 af3d
000001a0: af1a 533d c8f1 6cbc f887 603e 471e 0f3d
000001b0: 29d7 da3d f272 313e 068a 4a3e 8a86 593e
000001c0: 1837 b73d 58bd 853c 846f 28bd 1a35 423e
000001d0: f284 433e 8198 603e c303 293e f32f 8d3d
000001e0: 5d5e 083e 55d3 cfbc 5930 a03d f6ed 4a3e
000001f0: db70 b43d 2c85 be3d ed70 803b f1db 023e
00000200: 69f3 dd3d 7bca abbd efb5 79bd 2ecc 293d
00000210: 1978 a9bd 6785 9a3c 7c50 9dbc cb8b 02bd
00000220: 3c6e e93c 4caf c33d 9f26 f9bc 76e7 3cbd
00000230: 76fb 31bd 61dd 99bd 1600 adbd 29d6 c8bd
00000240: 0a83 05bd 3171 3bbd 6158 213c 4e99 a23d
00000250: 907d 913d 5f66 90bd 301e b03d 66a6 cebc
00000260: b273 803d 3d28 f9bc e407 c43d edd7 1f3e
00000270: 252c fd3d a3f1 d6bc 95fd f03d e5ed a73c
00000280: deef 0b3d 993a 3f3d c4ca b3bd d4fe 3a3d
00000290: 29a9 383b dc7c e03d b036 223e fec4 f3bd
000002a0: 2d37 e63d 167b f3bb 1e18 c0bc f707 0a3e
000002b0: 7b91 5b3d cb4a 41bd ba62 283d eb47 8cbd
000002c0: fb17 e2bd 71ab 11bd c219 c9bd b4ab f3bd
000002d0: a362 2d3d 2d76 9cbd 0320 0e3d 58de 183e
000002e0: b5ce a13d b2ff 05bd c087 e63d caac 5abc
000002f0: c476 b3bd 5e14 373d c8f6 5f3d 2491 51bd
00000300: 8763 263e 4af5 c3bb 5ee5 373e 38f8 0bbd
00000310: c525 3ebc 0bfd 7dbd c757 903d a2f6 903d
00000320: 018e df3d 0936 e43d 8d29 71ba 668c 6fbc
00000330: 19a5 123e 40e9 23bd d111 f83d 3b75 4fbd
00000340: b469 313c c96a 5d3e 79ee 9dbc 44c7 c93d
00000350: 0b9b 113e e843 673d 7caa a23c ed9e 2b3e
00000360: 1a05 64bb ef5c 993c 8c5e 7b3d 744a 08bd
00000370: 896f 3ebc ed75 103d 8d34 683e b7d4 8b3c
00000380: 42ca 023e 5758 3d3e 04a0 293e 7353 5f3e
00000390: f187 183e 5cc1 103e cb7f e83d cc28 0b3d
000003a0: 6bd8 243e fc71 9ebc f6f2 fb3d db5a f5b9
000003b0: 435c b23c ad86 f6bc c93c 3ebb ad1e 363d
000003c0: cb06 383e 9375 9f3c 9b14 193d 6497 213b
000003d0: 1fde 2ebd 24d4 883e 8764 ba3d 1fe1 f73d
000003e0: 6dab 203d 350d 84bd faf2 403e 2008 523e
000003f0: 5796 ad3d d7bc 35bd 146f 5f3d da5d 3fbc
-0.08532432 0.054104757 -0.05393113 0.14436287 0.025500687 0.13302846 0.06339674 0.14748459
0.14431502 0.0708937 0.05553735 -0.0044367984 0.016589567 0.12999916 -0.0007796404 0.13511759
-0.0238692 0.18948962 0.078089334 -0.06054588 0.0451137 -0.038119286 0.030651297 0.03729018
0.22557683 0.057041813 0.085446626 0.049933147 0.10427701 -0.0130056245 -0.009237845 0.018414006
0.036575444 0.16790329 -0.052049432 0.17989571 0.09434942 -0.001293515 0.11183936 0.15449989
0.0587258 0.06973474 0.053405527 0.08720875 -0.014678057 0.13301316 0.051444884 -0.014376948
0.058735352 -0.052197926 -0.02425202 -0.04941177 -0.048022486 0.1848423 0.11183416 0.100047715
0.017054565 -0.023188276 0.032567635 0.0022528314 0.14664994 -0.044247866 0.11621045 0.12514983
-0.043970536 -0.0169978 0.13674103 0.0840348 -0.03005437 -0.07327278 0.102942854 0.11746006
0.19128971 0.13560393 0.09878814 0.12583989 -0.07774795 0.026051885 0.018422503 0.12717658
0.23099981 0.07848048 0.075955465 0.1571503 0.07006394 0.03150947 0.20699035 0.18596397
0.15534517 0.17044012 0.07126976 0.00355357 -0.00507064 -0.005596128 0.05272556 0.016783435
0.01715061 0.1717979 0.10110435 0.21817549 0.050891206 0.038007308 0.089269795 0.085581295
0.05153912 -0.014461942 0.21926868 0.034940984 0.1068557 0.17329004 0.19779214 0.21242729
0.08946055 0.016325638 -0.041121975 0.18965569 0.19093683 0.21933176 0.16505341 0.06893911
0.13317247 -0.025369326 0.078217216 0.19817337 0.08810588 0.09302744 0.003919712 0.12779213
0.108374424 -0.083882295 -0.06096452 0.041454487 -0.0827486 0.01886244 -0.019203417 -0.0318716
0.028494947 0.095549196 -0.030413924 -0.046119176 -0.043452702 -0.07512928 -0.08447282 -0.09806473
-0.03259567 -0.045762245 0.009847731 0.07939397 0.07104027 -0.07050776 0.08599508 -0.02522583
0.06272067 -0.030414695 0.095718175 0.15609713 0.123619355 -0.026238268 0.11767117 0.02049918
0.034164302 0.046686742 -0.08778909 0.04565318 0.0028177 0.10961315 0.15841174 -0.11902808
0.11240993 -0.0074304445 -0.023449 0.13479601 0.053605538 -0.04719047 0.041109778 -0.06849655
-0.1103973 -0.03556389 -0.09819366 -0.11897984 0.042330395 -0.07639728 0.034698498 0.14928567
0.07900754 -0.032714553 0.11256361 -0.01334686 -0.08762887 0.044697158 0.05467871 -0.051163808
0.16248904 -0.0059801685 0.1795859 -0.034172267 -0.011605685 -0.0620089 0.07047992 0.070782915
0.10915757 0.11143119 -0.0009199612 -0.014620876 0.14320792 -0.040017366 0.12112773 -0.05064891
0.010828424 0.21622767 -0.019278752 0.0985246 0.142193 0.056461245 0.019856684 0.16759844
-0.003479308 0.018721072 0.061369464 -0.03327413 -0.011623272 0.035268713 0.22676297 0.017069204
0.12772468 0.1849073 0.16564947 0.21809177 0.14895608 0.14136261 0.113524996 0.033974454
0.16098182 -0.019341461 0.123022005 -0.00046797734 0.02177251 -0.030093515 -0.002902793 0.04446285
0.17971341 0.019465243 0.037373167 0.0024656886 -0.0426923 0.2672435 0.09101205 0.12103485
0.039225984 -0.064478315 0.18842688 0.20510912 0.08475941 -0.044369545 0.05454929 -0.011680091

lstm.weight_ih_l0_reverse f4 [256, 50]
00000000: 9a1d debd 351b 003d 3a35 2bbe 1561 46bd
00000010: 5e9a 453c 5021 aa3d de95 4cbc a413 99bc
00000020: 43da 7e3e 4754 3abe ceaa 79bd 8fb6 443e
00000030: 51cb 4ebe 9460 31bd c8ed 423e 4012 07bd
00000040: 9f04 9bbd bf4d d63d df68 44bd 7226 af3d
00000050: 4c98 27bd 8455 00bd 553d 29be 5635 933d
00000060: f95c 7a3c 9bfc 12be fbdf 7dbd b4a7 c2bd
00000070: f3c5 f03d 1db4 653a 7805 003e 3e1e a8bd
00000080: 8972 873c 6b34 023e f3d0 0d3c 938f b1bc
00000090: 29cc e83d ac50 afba 76eb 913d 8026 d23d
000000a0: e8e7 f1bd cf39 973d f651 0abd 50dd 10bd
000000b0: 9398 9cbd cf86 bdbd 03c3 bf3d 02f1 c7bd
000000c0: a04f e83c 838b 293e dc6b 8e3d fe2a 3c3e
000000d0: 48ba 403c edb2 10be b568 1abc def1 583c
000000e0: 7c29 b23d 97b5 c43d b19b 6bbd 42d9 8bbd
000000f0: 3217 353e a6a6 093d 04de 0bbd 47c2 41bd
00000100: 74e8 23bd d5d2 203c 4d33 5dbd 05a9 22be
00000110: 6396 a5bb ff91 22bd 5b2e 323d b662 2e3e
00000120: 92b5 35be 64a6 1dbe 82d3 e33c 2d8c 7fbc
00000130: 354f cc3a 22f5 b5bc 86e3 683c 35bf a0bd
00000140: 17ca e03c 9325 20be 5048 723d 0e94 dc3d
00000150: 75f8 27be b08b aebd b9f8 d63c 9e18 01bd
00000160: 4ea7 cb3d 7bf8 753d c606 98ba 107d 51bd
00000170: 49dc 123b 6598 d53c d020 30be b6f0 b7bc
00000180: 9f5b cbbc 6a5a 813d 1499 303e ebcb 693c
00000190: aaf4 3bbc b4bc bfbc 2ed3 78bd b962 8ebc
000001a0: e2c6 b5bd bb25 113e e183 35bd 90ba f53d
000001b0: b9bd 053e 1659 b0bc 8d37 3b3d 473b f03c
000001c0: d0f0 e1bc 6294 9ebb ec76 103b b18c fe3c
000001d0: d390 393e b186 00be e534 993d 498f 19bd
000001e0: a233 6c3c 0705 47bd 0735 b9bd 13e0 30be
000001f0: 735e 153d 3be7 25be ac33 66bd 3a1a aebc
00000200: 9947 67bd 5af2 173e 77b5 cc3d faca 03bd
00000210: 6d20 253e cb85 97bd de05 0abe aa68 15bd
00000220: 7f82 eebb 525d 06bd b396 303d 5605 113e
00000230: da38 25be 9ec9 dd3a 48d1 95bd 8696 11bd
00000240: f6bc 07be b4f9 c7bd 4a8b 89bc 4bf0 21bc
00000250: 5135 0d3e d392 f6bd 9c61 3d3d a9ee 903d
00000260: b2f7 f73c 507a a73d e11d 6b3d 383d 8f3c
00000270: 7ed9 88bd 37b8 393d 3983 0d3d 2e2c 27bd
00000280: 4e8a 843d 8966 a8bd 2a03 69bd 2ee0 bf3b
00000290: 2b98 11bd 284a b4bd 26a2 9d3d 262a 45bd
000002a0: 3d52 193e 46e6 4e3d 5c46 b6bd da9c 433d
000002b0: b7c5 37be 6116 7fbd a56f d9bd ebea d73c
000002c0: 9c82 bfbd 6046 a4bd ff53 cf3d a883 173d
000002d0: 809c b73d 8157 e7bd 148e 433d c247 d53d
000002e0: 09aa c9bc 01fc b2bc a5aa 61bd b6ea 813a
000002f0: 0594 acbb 296b 0fbe 0b28 163d 34d3 af3d
00000300: f529 2abd 5b30 16be f506 87bd 549a 52bd
00000310: 50b7 3e3e 9b15 673d acc5 a73c d693 fabd
00000320: 0566 39be 46f7 b23d 6bca 6e3d 1943 2abd
00000330: c57b 033e 70ac 113e df66 2f3d e4f7 4e3e
00000340: 0cda 813d 142b dc3c d481 bd3c 80a8 063d
00000350: 34e0 543e efb9 103d 4391 96bc 7895 9f3c
00000360: 1027 043e cf7e eabd 2e35 82bd 59a0 523d
00000370: 55e8 a9bd 3f4a d1bd faf2 5e3c 6479 f13d
00000380: becc cdbd 078b 823d a0df 313e 1f23 18bc
00000390: b6de 483d ac1e ac3c ae8d 1e3e a69e 73bd
000003a0: 2503 d6bc 95e8 09bc 80ab 393d 6642 563e
000003b0: b081 e3bd f2a2 093d 7468 e5bc 9878 1f3e
000003c0: 5353 fabd 850a de3d 9b81 e2bd 1d8e 1d3d
000003d0: 6346 f03c cdd7 973c a10e 1dbc 335d 21be
000003e0: 4186 0a3d f19d 0cbc 2c06 e43c 5eb1 653e
000003f0: 8aeb d03c 30a8 8dbc c09b 32be 9139 cb3a
-0.1084549 0.031275947 -0.16719523 -0.04843243 0.01206073 0.08307135 -0.012486903 -0.018686123
0.24887948 -0.18196212 -0.060953908 0.19210266 -0.20194747 -0.043304995 0.19036019 -0.03297639
-0.07569241 0.10464048 -0.047951575 0.08552255 -0.040916726 -0.031331554 -0.16527303 0.071879074
0.0152809555 -0.14354174 -0.061981183 -0.09504643 0.11756506 0.00087624957 0.12502086 -0.08208893
0.016534107 0.12715308 0.008655774 -0.021674907 0.113670655 -0.0013375483 0.07124989 0.102612495
-0.11811811 0.07384073 -0.03376957 -0.03536731 -0.07646289 -0.09254228 0.093633674 -0.097627655
0.02835828 0.16557126 0.06954166 0.18375775 0.011763163 -0.14130755 -0.009424378 0.013241259
0.08699319 0.09604948 -0.057521526 -0.06828548 0.1768463 0.033606194 -0.034147277 -0.047304418
-0.040016606 0.009815891 -0.054004002 -0.15884788 -0.005053328 -0.039690014 0.04350124 0.17029843
-0.17745045 -0.15395504 0.027810816 -0.015597385 0.001558757 -0.022211615 0.014214402 -0.0784897
0.027440114 -0.15639333 0.059150994 0.10770427 -0.16403373 -0.08522737 0.026241647 -0.031517617
0.0994402 0.060051423 -0.0011598698 -0.05114466 0.0022409132 0.026073644 -0.17200017 -0.022453647
-0.024823962 0.06316073 0.17245895 0.014269809 -0.011471907 -0.02340541 -0.06074827 -0.017381059
-0.088758245 0.1417455 -0.044315223 0.119984746 0.13060655 -0.021526854 0.045707274 0.02932514
-0.027580649 -0.004839466 0.002204354 0.031072946 0.18121652 -0.1255138 0.07480792 -0.037490163
0.014416607 -0.04858878 -0.09043317 -0.17272978 0.036467027 -0.16201489 -0.056201622 -0.02125274
-0.056464765 0.14838544 0.09995549 -0.032175995 0.1612565 -0.07398566 -0.134788 -0.03647677
-0.00727874 -0.03280384 0.043112468 0.14162192 -0.16134968 0.0016921049 -0.07315308 -0.03554394
-0.13255677 -0.09764424 -0.016790051 -0.00988395 0.1378987 -0.12039723 0.046235666 0.07076771
0.030269478 0.08177626 0.05740154 0.017485246 -0.06682108 0.045341697 0.03454897 -0.040813617
0.06471692 -0.08222682 -0.056887783 0.0058555817 -0.03554551 -0.08803207 0.07696943 -0.0481359
0.14972778 0.050512575 -0.08900139 0.047757007 -0.17946516 -0.0622772 -0.10616998 0.026357135
-0.09351084 -0.080212355 0.10123443 0.03699079 0.08965397 -0.11295987 0.047742918 0.10414077
-0.024617212 -0.02184868 -0.05509438 0.0009911868 -0.0052666687 -0.14005722 0.03665928 0.08585206
-0.04154392 -0.14666884 -0.06593124 -0.05141671 0.18624616 0.05641709 0.02048 -0.12235229
-0.18105324 0.0873857 0.05829851 -0.041567896 0.12840183 0.14225936 0.042822715 0.2021175
0.06340417 0.02687601 0.023133196 0.032875538 0.20788652 0.03533357 -0.018379813 0.019480452
0.12905526 -0.11449968 -0.063577995 0.05142245 -0.08296267 -0.102192394 0.013607735 0.117907315
-0.10048817 0.063741736 0.17370462 -0.009285717 0.04904052 0.02101072 0.15483734 -0.05947747
-0.026124546 -0.008417268 0.04532957 0.20923766 -0.1110872 0.033602662 -0.028003909 0.15573347
-0.12222924 0.1084185 -0.110598765 0.038465608 0.029330438 0.018535519 -0.009586007 -0.15758209
0.03381944 -0.008582578 0.027834974 0.22430941 0.025502939 -0.017292112 -0.17442226 0.0015504827

lstm.weight_hh_l0_reverse f4 [256, 64]
00000000: 0cba fc3d 51e8 ea3d 9e37 98bd 1a03 333c
00000010: cd49 80bc 2275 8ebd 7382 7cbd 271c d9bd
00000020: aee4 b2bc 7737 c2bc 1b9e 0a3e 46ab 4abd
00000030: b296 813d cef8 0ebe 66cf e5bc 6456 13be
00000040: da54 25bd 84ac 89bd a213 fe39 b31c 33be
00000050: 3451 e3bd 0630 093e d217 173d 4602 90bd
00000060: 29fe 30bd fe29 613e 4f2c f03d 3e1a 6fbc
00000070: 5ef2 333d 9ce3 cd3d fa9d 26bd 7005 b5bd
00000080: f0de f13d 6987 0c3e 1183 553d 8b1a 1a3d
00000090: fca2 d93c 102d e9bd 8ae4 863c fe84 7c3d
000000a0: c447 d03d e833 093e b98a 8fbd 040e 563d
000000b0: d404 bebd 1b87 06bd 4303 413e b528 cdbc
000000c0: e1c3 5ebd ef94 103e eab8 0b3d 37c8 d33d
000000d0: e065 c8bd e1e2 173d 950f a23d 358d 393e
000000e0: 0285 5dbd fb1c c6b9 648d 35bd 6d2d 16bc
000000f0: 6f05 a03c 6f79 dfbd 7e5b 9b3a e2ac 0dbe
00000100: f3b2 3ebc 4dcf 2c3d 191b ba3d 2274 593b
00000110: b131 163e f1db c1bd 9625 133e 04cf f1bd
00000120: 61f5 183d f8c4 bf3b 4e2e 903c a885 b6bb
00000130: 3b81 3a3c 345c 1dbe 9346 68bc 50b7 cc3b
00000140: 1356 b5bd 1fba 97bd a331 8f3d 142f 40bd
00000150: 9d17 19be aab1 0c3e 89ea f83d fe6b dcbd
00000160: b8a9 143a d8c4 4d3e 608d 013c 487a 363e
00000170: 7a87 18be 72cc ed3c 5ac6 253c acd7 bbbd
00000180: ca63 ecbd 905a 8f3d b37e ff3d 2d3d 293e
00000190: 2186 a0bd 6e50 97bd caea bc3d e75b 0bbc
000001a0: 2074 043e dcea a7bd 317b a73d bf5c 26bc
000001b0: 3f35 8dbd 703c 943c 428e c5bd dd52 c23d
000001c0: c8fd 69bd ca0b 0fbe c647 d2bd 16cc 09be
000001d0: afc8 86bd fdeb 353d a398 c53d cc08 013e
000001e0: b5eb 093c 5272 2d3e 2f8e a8bd b2ce 333e
000001f0: 9075 023e 4c91 9e3d d4a7 dbba d171 573e
00000200: 0976 c43d 0284 79bd 5509 87bd 1730 213e
00000210: fe31 143e cd0d e4bd 1ecd f73d e516 58bd
00000220: 77cd 99bd 7667 45be 1cf0 233c 1e8a 153e
00000230: b65a 19be 4083 a83c 72ef 683c ec56 153c
00000240: 0d2e a93d 3f9e 033e f35e 13be d153 74bd
00000250: e5a5 c8bd e9ec a03c 516c a93d a787 69bc
00000260: dc5b 7ebd da16 81bd ae5a afbb e53a 1b3d
00000270: 979e 85bd 786f c03d 7be3 96bd cdaa 873d
00000280: 42f4 ba3c 37a5 0dbd 31a9 a73d 74f8 063d
00000290: 5f53 273c 1a2f 93bd 9cd1 503d d9b9 953d
000002a0: 33cf 63bd 3e8f 103d 95c7 f3bd c3c0 803d
000002b0: 1165 023e 35a1 853c 1d98 5dbd b9e0 013d
000002c0: 5008 523b d0eb 2a3d 1da4 013e af33 823c
000002d0: d3a1 45bd 8e25 e13c 8734 443e d3b6 2e3e
000002e0: 361b 55bd 39f2 653c 5409 7abd e95a e7bb
000002f0: 3960 52bc f8d2 7abd eba6 3b3e 9f0b 0dbe
00000300: 10ad 1a3e 14fe c23d f58f 7abd 4acf 9fbd
00000310: bc46 a13d 1e25 f3bb 7b70 8cbd 722a 25be
00000320: f1b8 113e 9110 81bc e0c3 bebc 5c6a 923d
00000330: ebd7 dbbd 4011 f0bd c72b dcbd 6f63 2fbe
00000340: 3a88 1ebe 1eee cf3d 5201 c4bd 0198 b1bc
00000350: 3750 45bd 8be1 b7bc e18b 983b abc1 81be
00000360: aed8 1fbe 837c c33c 3a21 bf3d 14af fe3d
00000370: 088e febd 7899 a0bc a59f a5bd 37f6 03be
00000380: 73a6 00bd 14f6 8abd 02b4 60bb b80a f8bc
00000390: e2e8 aa3c d0d2 f63c 2fee 4bbd b78d ee3c
000003a0: 7fdd 29bc ffda fd3d f831 663d 03af d4bd
000003b0: 7b27 aa3d 8209 58be 5218 043e 5cde 353c
000003c0: 4400 133d e51d 94bc f8dd 51bd 0a31 f5bd
000003d0: c820 98bd d083 eb3d a07b 2f3d c971 0cbc
000003e0: 61e8 a3bd e3b7 06bd efda 493d e635 873d
000003f0: ae20 27bd 734a c0bd 6b22 b63d 4e0a ac3d
0.12340173 0.11470092 -0.07432483 0.010926032 -0.015660191 -0.06955935 -0.061647844 -0.10601073
-0.021837559 -0.023708088 0.13536875 -0.049479745 0.06327571 -0.13962099 -0.028052997 -0.14388424
-0.040364124 -0.06722358 0.00048461283 -0.17491417 -0.11099473 0.13397226 0.03688795 -0.070316836
-0.043211136 0.21988675 0.11727201 -0.014593659 0.04393231 0.10053179 -0.040678002 -0.08838928
0.118101 0.1372353 0.052126948 0.03762297 0.026566975 -0.11385548 0.016466398 0.06165027
0.10169938 0.13398707 -0.07008881 0.05225946 -0.09278265 -0.03284369 0.188489 -0.025043825
-0.054386023 0.14119314 0.034111895 0.10340922 -0.09785056 0.037081603 0.07913128 0.18120272
-0.054081924 -0.00037787095 -0.044324294 -0.009166104 0.019533841 -0.109118335 0.0011852828 -0.13835481
-0.0116393445 0.042189885 0.090872 0.0033180793 0.14667393 -0.094657786 0.14369807 -0.11807063
0.037343387 0.005852338 0.017600205 -0.0055701323 0.01138335 -0.15367204 -0.014176982 0.0062474385
-0.08854308 -0.07408547 0.06991889 -0.046919897 -0.14950414 0.13739648 0.12154109 -0.107627854
0.0005671042 0.20094621 0.007907242 0.17820084 -0.1489543 0.029028151 0.0101180915 -0.091719955
-0.11542471 0.06999695 0.12475338 0.16527243 -0.07838083 -0.073883876 0.0922447 -0.008505798
0.12934923 -0.08199093 0.08177794 -0.010153948 -0.068949215 0.018095225 -0.09646274 0.09488461
-0.05712679 -0.13969341 -0.10267596 -0.13456759 -0.06581246 0.04441451 0.09648254 0.12601012
0.008418013 0.16938141 -0.08230244 0.17559317 0.12740159 0.07742557 -0.0016758391 0.21039511
0.09592826 -0.060916908 -0.06593577 0.15741001 0.14472196 -0.11135445 0.1209967 -0.05275621
-0.075098924 -0.19277748 0.010005977 0.14603469 -0.1497601 0.020570397 0.014217244 0.009114962
0.082607366 0.12853335 -0.14391689 -0.059650246 -0.09797267 0.019644218 0.08272613 -0.014253533
-0.062099323 -0.06303187 -0.005351386 0.037897963 -0.06524389 0.09396261 -0.07367607 0.066243745
0.02282155 -0.03458139 0.081865676 0.032951787 0.010212748 -0.07186718 0.05098115 0.07310838
-0.055617522 0.035292856 -0.119033016 0.062867664 0.12733866 0.016312221 -0.054100145 0.031708453
0.0032048412 0.041728795 0.1266026 0.015893785 -0.04825003 0.027483728 0.19160663 0.1706193
-0.052027903 0.014034801 -0.061044052 -0.007060398 -0.012840324 -0.06123635 0.18325393 -0.13773964
0.1510508 0.09521118 -0.061172444 -0.07803209 0.0787482 -0.007420196 -0.068573914 -0.16129473
0.14230706 -0.01575497 -0.02328676 0.07149193 -0.107345425 -0.1172204 -0.10750537 -0.17127775
-0.15481654 0.10152839 -0.09570564 -0.021678926 -0.048172202 -0.022446414 0.0046553467 -0.2534307
-0.1561 0.023863083 0.09332509 0.12435737 -0.12429434 -0.01960443 -0.080870904 -0.12886892
-0.03140874 -0.06785217 -0.003428698 -0.030278549 0.020863 0.03012982 -0.049787696 0.02912031
-0.01036775 0.12395286 0.056199998 -0.10384943 0.083083116 -0.21097377 0.12899902 0.011100378
0.035888925 -0.018080661 -0.051237077 -0.11972244 -0.074281275 0.114997506 0.042842507 -0.00857205
-0.08003307 -0.03289021 0.049281057 0.06602077 -0.04080265 -0.093892 0.088932835 0.08400403

lstm.bias_ih_l0_reverse f4 [256]
00000000: e187 e43d 6097 1a3e bcdd 8b3d 5668 663d
00000010: c477 8dbd 73b8 0c3d 07a6 b23d ab22 5ebc
00000020: 054a 0a3d 6b6f d83d ea89 4b3d c040 ed3d
00000030: fd3f 183e a597 b0bd fc86 03bc 5ab8 fd3c
00000040: 8190 893c 34be d53d 2266 4b3e c6e8 723d
00000050: 9aa2 db3d 41e5 57bd fa67 93bd 693d ef3d
00000060: 4b3c fa3d 7c09 69bc b681 363e 06fa 333d
00000070: 7925 9f3d 5785 663e 9e97 2a3e 7a74 933d
00000080: 9200 05bd 64c4 8c3d 3cce 163e dce7 f13d
00000090: 40f6 df3d d002 7bbc 2624 ba3d 9084 cc3d
000000a0: 69bc 853c 1435 ca3d 138d df3d cc63 383e
000000b0: e768 c43d 0e89 59bd 9e92 fe3c 7956 e8bc
000000c0: 1909 053c a5fb 433e 127d a53d e89b 083c
000000d0: 9c61 0d3e 48ef b53c 11cf 7cbd 4769 113e
000000e0: b119 ef3d bcc2 c83b 9378 cd3d b6c6 f33d
000000f0: 9658 883d 0da2 f83d 31ce d53d 7114 ca3c
00000100: 0965 dd3d 08f8 163e 0732 b83d 74d3 55bc
00000110: 5e95 923d 5f03 1b3e 8f84 c93c 0eac ea3d
00000120: 312b 47bd bd24 073e c85b a4ba 3c79 d63d
00000130: 5825 e63a ddc7 27bd c8c8 f7bd 34fc 223e
00000140: 8d70 af3d e936 a63b dafb 753d d763 773d
00000150: 71ab f73d a982 13bc a254 f33c 54c0 ab3d
00000160: 523e 923d 9311 a3bd 5b6b eb3d 9adc 063e
00000170: d4ae 513d 0bff 8abd 423e 0d3e 7d81 10bd
00000180: e0c6 01bc 2f32 403d 2a65 99bd 0dcb 9d3d
00000190: cbcd 923d 9e8c 583b 7dba 8ebc 0542 1f3d
000001a0: 3ec8 063e 1768 b6bd 24e0 393c 1b50 0d3e
000001b0: 0d86 b6bd 2ece 8ebd 9f45 903d 7976 e63c
000001c0: 102d c8bd ec40 523d 88eb 1b3e a6c8 39bc
000001d0: 1cb9 173e 42b4 e63d 23a9 ac3d c93f a1bd
000001e0: 1a2b df3d f573 033e cfcb c53d 6b25 40bd
000001f0: 9cba 3dbd fa60 443c 4e71 793d 26cf f4ba
00000200: 9f46 6d3d 9b97 e3bd 6caf d03d b2c4 46bd
00000210: fd2e af3d c544 bcbd adbc 863d 80b4 063d
00000220: 95b1 b93d cf84 0bbe 36fd 863c 4973 a43d
00000230: 85ea c93d b2c3 64bc 1aa1 87bc c0b9 cdbd
00000240: f58c 09be bd68 f1bd 7b6d 6a3d 7cfd a43d
00000250: d0b6 ff3d f459 82bd a541 3bbd 9c5c c2bd
00000260: 0cef aebd 527b 383c 8075 f13d 678c ab3d
00000270: 8d95 d8bd 6689 313d 1dfd dfbd a5a4 0c3d
00000280: b1c7 d63d c207 a43d 1ec7 653b 0ae6 3d3d
00000290: 429a 28bd ce40 f5bd 4bbb 023e eb81 163d
000002a0: 0ca8 8a3d 9262 b63d 6613 eb3d da32 06be
000002b0: 1ab4 b83d b828 1abe 5871 ce3d 0859 08bd
000002c0: 8aef b93d e6a7 1b3c 6f0c 44bc 4beb 6e3d
000002d0: 616d 213d add1 03bd 0ca3 013e 2c36 d63d
000002e0: e32c 9d3d 8281 be3c 322d 893c 3601 283d
000002f0: d5ee 413e 1838 eabd c3ad 3c3d f9ae 03be
00000300: bfb1 883c 4067 693e afb3 9dbd 4432 cebd
00000310: 77df 273e 6621 5abd 82e4 fa3d b0fb fb3d
00000320: 711c b5bc cb5f debb e6ab acbb fed1 06bd
00000330: ec85 ae3c 2db3 d73d 8fb2 7cb9 aa4d 073e
00000340: 6047 9ebd d927 ab3d 2480 47bc a2c4 e43d
00000350: 893e 973d c998 d2ba 22c2 d33d abc5 333e
00000360: d094 0d3e 7a93 7f3d c83a b53d fbf3 193c
00000370: 4d0e 083e 472c 013e a69a 223e b3d6 773b
00000380: 54de 55bc 020b fa3d 923d 733d 92c0 1f3e
00000390: df1e c6bd 7866 71bc cbe8 ed3c a18c 663c
000003a0: 1d0d b83c c3e2 0e3e f65f dc3d 8ff7 2ebd
000003b0: 8ab8 0e3e 90a9 803c 9eaa b93d 40e0 8a3d
000003c0: 2ffc 4c3d 174d 76bb 80ad 4c3d b6e8 8abd
000003d0: b866 2f3d bd60 3d3d 33a7 cf3c d38a 313e
000003e0: 959a a93b ee51 7ebd ccd4 24bd 1a3d 2b3c
000003f0: 04e2 873d 6c86 5a3d 9f29 983c ad7c 9a3d
0.11158729 0.15096807 0.06829402 0.056251846 -0.06907609 0.034355592 0.087230735 -0.01355807
0.033761997 0.10568126 0.049692072 0.11584616 0.1486816 -0.08622674 -0.008027788 0.030971695
0.016792538 0.10436669 0.1986318 0.05930402 0.10724373 -0.052708868 -0.07197566 0.11681635
0.12218531 -0.014223453 0.17822918 0.043939613 0.07770819 0.22511803 0.166594 0.071999505
-0.032471247 0.06873396 0.1472711 0.11811802 0.1093564 -0.015320495 0.09088926 0.09986222
0.016325193 0.09873405 0.1091558 0.1800682 0.09590321 -0.05310922 0.031075772 -0.028361546
0.008119845 0.19138964 0.08080496 0.008337952 0.13806766 0.022208825 -0.06172091 0.14200316
0.11674822 0.00612673 0.10032763 0.119031355 0.066575214 0.12140284 0.104397185 0.02466795
0.108102866 0.14743054 0.08993917 -0.013050903 0.07157396 0.15138005 0.024599342 0.11458598
-0.048625175 0.13197608 -0.001253956 0.10472342 0.0017558737 -0.04096209 -0.12098843 0.1591652
0.08566389 0.005072464 0.060054637 0.06039795 0.12093247 -0.00900332 0.029703442 0.08386293
0.07140793 -0.079623364 0.11495086 0.1317009 0.05119212 -0.06786927 0.1379328 -0.03527974
-0.007920951 0.04692286 -0.07489999 0.077047445 0.07168158 0.0033042799 -0.017422909 0.03888132
0.13162324 -0.08906572 0.011344943 0.13800089 -0.08912287 -0.069729194 0.07044529 0.028132664
-0.0977422 0.051331446 0.15226567 -0.011339342 0.14816707 0.1126485 0.08430698 -0.07873494
0.10896893 0.12837203 0.09658014 -0.046910685 -0.046320543 0.011986012 0.06089907 -0.0018677458
0.057928678 -0.11112901 0.10189709 -0.048527427 0.08553884 -0.09192804 0.06578956 0.032886982
0.09067074 -0.13624881 0.016478162 0.080298014 0.09859184 -0.013962673 -0.016556311 -0.100451946
-0.13432677 -0.11787555 0.057233315 0.08056161 0.124860406 -0.063648134 -0.0457169 -0.0949032
-0.08541688 0.011259871 0.117899895 0.08376389 -0.105753995 0.043343924 -0.109369494 0.034336705
0.10487307 0.08009292 0.003506131 0.04636196 -0.041162737 -0.11975251 0.12766759 0.036744993
0.06770334 0.089055195 0.11478309 -0.13105336 0.09018727 -0.15054595 0.10080212 -0.03328803
0.090788916 0.009500479 -0.011965855 0.05832986 0.039410952 -0.032182384 0.12659854 0.10459551
0.07674577 0.023255114 0.016745184 0.04101678 0.18938763 -0.1143648 0.04606415 -0.12859716
0.016686318 0.22793293 -0.077002876 -0.10068181 0.16393839 -0.053254507 0.12250616 0.12303865
-0.022108288 -0.0067863218 -0.0052695153 -0.032915108 0.021304093 0.10532222 -0.00024099111 0.1321322
-0.077284575 0.0835721 -0.012176547 0.11170317 0.073849745 -0.0016067262 0.10339762 0.17555873
0.13826299 0.062396504 0.08849102 0.009396548 0.13286705 0.12614547 0.15879306 0.003781718
-0.013053495 0.12209131 0.05938489 0.15600803 -0.09673857 -0.014733903 0.029041668 0.0140716145
0.02246719 0.1395369 0.107604906 -0.04271656 0.13937584 0.015705854 0.09065746 0.067810535
0.05004519 -0.003758257 0.04997015 -0.06782667 0.04282257 0.046234835 0.025348281 0.17338113
0.0051758983 -0.062089853 -0.040242 0.0104515795 0.06634906 0.05335085 0.018574534 0.07543311
